models/landmarks_cnn.pt (torch, 149790 bytes, 14 tensors)

net.0.weight f4 [64, 50, 3]
0.023965808 -0.050560586 0.012905212 0.06405262 0.011013632 -0.033807896 0.07122153 -0.00675343
-0.062379144 -0.018414877 0.0038409347 -0.023773557 -0.03397189 -0.06726782 0.051265705 0.013248738
0.025264192 -0.04358903 0.054407757 0.05463357 -0.0842897 -0.05411414 -0.079656966 -0.02353837
0.08511637 0.022528285 -0.029940268 0.0070612645 -0.06434496 -0.017621975 0.049599223 0.07788092
0.05672576 0.06314385 0.0046758507 -0.04869989 -0.01436205 -0.039501835 -0.069929436 -0.056696944
-0.036834132 0.06608319 -0.020066751 0.074915566 0.06015667 -0.059426736 0.024085559 -0.037715245
0.056575704 -0.032679208 0.05757103 0.07556666 -0.079597555 0.07498925 0.022803238 -0.004810245
-0.08028032 0.00014677636 0.06804239 0.020140793 -0.06681128 -0.05105884 0.059770957 0.032526366
-0.056930773 0.011392251 -0.050037745 -0.041235358 0.037738957 -0.001616471 -0.01639836 0.018303655
0.062277287 -0.03715914 -0.04943844 -0.03685297 -0.05733064 -0.043981813 -0.00942923 0.037587333
-0.037400898 0.000750642 0.07576197 -0.00939447 0.06529219 0.06135304 -0.004893708 0.07247936
0.036436975 -0.03911756 0.061180502 -0.049951788 0.026011815 0.04334759 -0.04281157 0.030735036
0.002296784 0.0088706985 -0.039483592 0.004115579 0.011352522 0.011599988 0.078625746 0.04410257
-0.05718337 0.083636634 0.024149997 -0.06644024 -0.067857124 -0.058223877 -0.06074574 0.056857612
-0.036988933 -0.0152589595 0.05719484 -0.025423773 0.050377928 0.017869709 0.015420719 0.06789248
0.048827123 0.05034264 0.07424937 0.0714353 -0.055544425 -0.050723333 0.048976593 -0.018416932
0.0010539591 -0.076939456 -0.0024342658 0.019407485 0.021202626 0.042324483 -0.05175206 0.078450225
-0.076063685 0.048042458 0.07531851 -0.021506483 -0.024783604 -0.072670095 0.013851086 0.04419745
-0.017478999 -0.009091709 0.051050458 0.013933324 -0.044321597 -0.07730863 -0.032386232 -0.057657227
-0.070996076 -0.015088899 -0.06846119 0.0024536133 0.07164047 -0.0052788914 -0.020035133 0.029858105
0.054879956 -0.07826166 0.068335235 -0.066892676 0.07567043 0.012894319 -0.04271458 0.05225883
-0.035635307 0.015559419 0.011041545 0.061812174 -0.013745436 -0.07875752 -0.07464517 0.026418384
-0.045680698 -0.054235857 -0.031869356 -0.003761718 0.025640719 0.003263469 0.07571846 0.013958869
-0.0127601 -0.013360126 0.07789956 0.03635475 -0.06862075 0.005897537 0.011009443 -0.018995553
-0.0012553898 -0.050281066 0.043944247 -0.035651222 -0.040312096 -0.037935276 0.07376841 -0.013372436
0.06394458 0.016491145 -0.07048229 -0.059246138 -0.06296635 -0.036696427 -0.08359072 -0.019608676
0.0292942 -0.058811996 0.033776946 -0.057903484 -0.006262873 0.0016152838 0.08277702 -0.083651155
-0.06440322 -0.06272624 0.038604148 -0.06195507 0.01941094 0.04458397 -0.046641596 0.03854772
-0.04467539 -0.007853733 -0.028495377 0.018695949 -0.07106773 -0.06422068 0.07021558 0.0030181827
0.07015576 0.042806983 -0.02523531 0.06358732 -0.05983408 -0.012349349 0.08787052 -0.02619743
-0.026644325 -0.06883582 -0.07083668 0.026051302 0.022697577 0.01855674 -0.043348454 0.01786566
-0.028149458 0.05715756 0.03299491 -0.023941444 0.014626364 -0.046489157 -0.029978769 0.035282195
00000000: f153 c43c 9e18 4fbd 6270 533c 052e 833d
00000010: 8572 343c 267a 0abd 98dc 913d e04b ddbb
00000020: 4681 7fbd ccda 96bc 31b8 7b3b c3c0 c2bc
00000030: 1c26 0bbd b6c3 89bd fdfb 513d 3c11 593c
00000040: daf6 ce3c 698a 32bd abda 5e3d 73c7 5f3d
00000050: 14a0 acbd caa6 5dbd 3123 a3bd 8ad3 c0bc
00000060: 7e51 ae3d 3d8d b83c 4b45 f5bc 2e62 e73b
00000070: 4ac7 83bd f65b 90bc 8e28 4b3d 0880 9f3d
00000080: 4559 683d 9051 813d e137 993b 8979 47bd
00000090: ce4e 6bbc adcc 21bd 2a37 8fbd 0e3b 68bd
000000a0: 63df 16bd a056 873d 0763 a4bc 556d 993d
000000b0: d766 763d 7369 73bd 144f c53c 4d7b 1abd
000000c0: edbb 673d a2da 05bd 9acf 6b3d b1c2 9a3d
000000d0: 0b04 a3bd f793 993d dbcd ba3c 429f 9dbb
000000e0: 026a a4bd fbe7 1939 cf59 8b3d 4efe a43c
000000f0: 5ad4 88bd 1323 51bd 64d2 743d 5e3a 053d
00000100: 3e30 69bd 90a6 3a3c 61f4 4cbd 68e6 28bd
00000110: 2a94 1a3d c4df d3ba da55 86bc 8cf1 953c
00000120: 7816 7f3d 2f34 18bd f67f 4abd 24f3 16bd
00000130: 88d3 6abd 4626 34bd 0f7d 1abc 2df5 193d
00000140: af31 19bd bbc6 443a 1729 9b3d 43eb 19bc
00000150: e9b7 853d 534d 7b3d 665b a0bb 0f70 943d
00000160: f03e 153d bc39 20bd 6898 7a3d 3f9a 4cbd
00000170: bb16 d53c 3e8d 313d 2f5b 2fbd 0bc8 fb3c
00000180: a485 163b 6856 113c 8cb9 21bd fbdb 863b
00000190: eeff 393c e00d 3e3c 8906 a13d e5a4 343d
000001a0: 1c39 6abd af49 ab3d 37d6 c53c d211 88bd
000001b0: adf8 8abd 297c 6ebd 86d0 78bd 87e3 683d
000001c0: b581 17bd b700 7abc 2345 6a3d 8445 d0bc
000001d0: 1659 4e3d 7f63 923c 2fa7 7c3c 360b 8b3d
000001e0: f3fe 473d 1634 4e3d 0e10 983d ac4c 923d
000001f0: 8d82 63bd 45c3 4fbd ae9b 483d 1bdf 96bc
00000200: 0025 8a3a 6f92 9dbd 3488 1fbb 72fc 9e3c
00000210: 21b1 ad3c 705c 2d3d f8f9 53bd 83aa a03d
00000220: 47c7 9bbd 2bc8 443d 9740 9a3d 5d2e b0bc
00000230: fc06 cbbc 0fd4 94bd aaef 623c 6308 353d
00000240: 1e30 8fbc 64f5 14bc 491a 513d 9948 643c
00000250: 908a 35bd fd53 9ebd 6da7 04bd fc29 6cbd
00000260: 6466 91bd 6e37 77bc 6135 8cbd cdcc 203b
00000270: 3db8 923d 8dfa acbb b820 a4bc fc98 f43c
00000280: cec9 603d a647 a0bd 58f3 8b3d 07ff 88bd
00000290: 19f9 9a3d b242 533c 7cf5 2ebd 5b0d 563d
000002a0: 54f6 11bd efec 7e3c 99e7 343c c32e 7d3d
000002b0: 8a34 61bc 9f4b a1bd 91df 98bd 5e6b d83c
000002c0: af1b 3bbd 6b26 5ebd 7189 02bd 2887 76bb
000002d0: 7c0c d23c eddf 553b 4812 9b3d bdb3 643c
000002e0: bd0f 51bc 6ee4 5abc ce89 9f3d b8e8 143d
000002f0: 0989 8cbd 2040 c13b f360 343c 909c 9bbc
00000300: e48b a4ba 85f3 4dbd e2fe 333d 0407 12bd
00000310: 4c1e 25bd 0562 1bbd e413 973d 1018 5bbc
00000320: 60f5 823d 7018 873c 0559 90bd 14ac 72bd
00000330: 80f4 80bd fe4e 16bd 9d31 abbd 60a2 a0bc
00000340: 64fa ef3c d9e4 70bd b259 0a3d 342c 6dbd
00000350: c938 cdbb eeb7 d33a 0087 a93d 4c51 abbd
00000360: d6e5 83bd 9d76 80bd 621f 1e3d 99c4 7dbd
00000370: b103 9f3c ae9d 363d 420b 3fbd 37e4 1d3d
00000380: 8bfd 36bd f2ac 00bc 236f e9bc 3f28 993c
00000390: f58b 91bd 2286 83bd 30cd 8f3d b4cc 453b
000003a0: d3ad 8f3d 6056 2f3d 48ba cebc 123a 823d
000003b0: 9514 75bd ed54 4abc 76f5 b33d fe9b d6bc
000003c0: 3345 dabc cbf9 8cbd d212 91bd 8a69 d53c
000003d0: 45f0 b93c 4e04 983c 268e 31bd 015b 923c
000003e0: b199 e6bc 0c1e 6a3d ac25 073d d920 c4bc
000003f0: 6ba3 6f3c 6a6b 3ebd 0996 f5bc 1084 103d

net.0.bias f4 [64]
-0.020949949 0.033921298 -0.005779646 0.038532164 -0.057066865 -0.04265557 -0.05588447 0.0899015
0.08701009 0.035815813 0.030330796 0.06892488 -0.039870486 0.04262847 0.087680794 -0.061446633
-0.012151487 -0.0058670803 -0.034048323 -0.013311678 -0.09715845 -0.0053320955 0.016004412 -0.029196935
0.0793243 0.04805515 -0.043207772 0.045306846 0.04819739 -0.043751173 -0.012222121 0.075988054
-0.0374293 0.076913096 0.06510138 -0.048215438 -0.0043850653 0.04277754 -0.03128102 -0.059100963
0.084648415 0.030455418 -0.020670263 -0.059498876 0.0052840477 -0.07717808 0.07061376 0.034815874
0.09280363 -0.03333486 -0.072121985 0.030032696 -0.019376256 -0.08445254 0.03115574 -0.09907834
0.009750317 -0.04958549 -0.06444444 0.0073835296 -0.052132502 0.079914674 0.039717942 -0.09688136
00000000: 3a9f abbc 0ff1 0a3d 2f63 bdbb e7d3 1d3d
00000010: f2be 69bd 9bb7 2ebd 1de7 64bd 471e b83d
00000020: 5932 b23d 9ab3 123d 4a78 f83c 7d28 8d3d
00000030: 3c4f 23bd 319b 2e3d fd91 b33d 77af 7bbd
00000040: 0817 47bc a340 c0bb 4176 0bbd 3919 5abc
00000050: 02fb c6bd dcb8 aebb af1b 833c 692e efbc
00000060: c774 a23d 7ad5 443d a2fa 30bd ac93 393d
00000070: a06a 453d 6e34 33bd 4a3f 48bc a09f 9b3d
00000080: 774f 19bd 9d84 9d3d df53 853d 8d7d 45bd
00000090: 98b0 8fbb 8037 2f3d 8720 00bd da13 72bd
000000a0: 265c ad3d a47d f93c af54 a9bc 18b5 73bd
000000b0: ce25 ad3b 8b0f 9ebd f29d 903d 179b 0e3d
000000c0: d40f be3d 228a 08bd b1b4 93bd 2107 f63c
000000d0: f4ba 9ebc 74f5 acbd 533a ff3c 96e9 cabd
000000e0: cbbf 1f3c 281a 4bbd 72fb 83bd 89f1 f13b
000000f0: e488 55bd 4eaa a33d 48af 223d bc69 c6bd

net.2.weight f4 [64]
0.98748046 0.98881024 0.98905516 1.0274084 1.0276058 0.9993896 0.98856497 0.99201757
0.99919415 0.9889128 0.9808614 0.99457055 1.0059602 0.9721733 1.043391 0.9376921
0.98613507 1.0061169 1.0 1.0 0.96549433 0.9558538 0.9886055 0.99901104
1.0116594 1.0 0.995462 1.0 0.98542607 1.0491508 0.9856093 1.0207877
0.9802997 1.0 0.99750006 0.98686004 0.9762727 0.9849236 0.9787196 0.98356247
1.0061992 1.0404187 0.98411137 0.97964555 1.0 0.97653407 0.97279066 1.0035595
1.0138007 1.0060816 0.9847462 0.99861896 0.9902562 0.98884887 1.0 0.9611292
0.9391565 1.0 1.1012565 0.9781412 0.98168224 1.0289682 0.9866488 1.0718899
00000000: 85cb 7c3f ab22 7d3f b832 7d3f 1e82 833f
00000010: 9688 833f ffd7 7f3f 9812 7d3f ddf4 7d3f
00000020: 30cb 7f3f 6429 7d3f bc19 7b3f 2d9c 7e3f
00000030: 4ec3 803f 59e0 783f d68d 853f 970c 703f
00000040: 5973 7c3f 70c8 803f 0000 803f 0000 803f
00000050: a32a 773f d6b2 743f 4015 7d3f 30bf 7f3f
00000060: 0e7e 813f 0000 803f 99d6 7e3f 0000 803f
00000070: e244 7c3f 934a 863f e450 7c3f 2ca9 823f
00000080: ecf4 7a3f 0000 803f 2a5c 7f3f dca2 7c3f
00000090: 02ed 793f f423 7c3f 5e8d 7a3f c0ca 7b3f
000000a0: 23cb 803f 712c 853f b9ee 7b3f 0dca 7a3f
000000b0: 0000 803f 23fe 793f cf08 793f a374 803f
000000c0: 39c4 813f 48c7 803f 5418 7c3f 7ea5 7f3f
000000d0: 6e81 7d3f 3325 7d3f 0000 803f 900c 763f
000000e0: 8f6c 703f 0000 803f f9f5 8c3f 7667 7a3f
000000f0: 874f 7b3f 3bb5 833f 0495 7c3f b033 893f

net.2.bias f4 [64]
-0.0016705686 -0.0027890112 0.03938091 0.031383473 -0.041731764 0.078113034 -0.013209279 0.006467524
-0.013820178 -0.02808248 -0.026053177 0.029325364 -0.05897516 0.00065263966 0.054424427 -0.052121438
-0.02183422 -0.034316782 0.09515475 0.08968898 -0.06887333 -0.015186894 -0.0013970627 -0.009830916
-0.050073933 0.084577665 0.010338441 -0.08731588 0.016094066 -0.006399865 -0.013253248 0.030235313
0.012015641 -0.08550872 -0.005035393 -0.04303606 0.001228904 0.004237097 -0.03151505 -0.020944359
-0.00924323 -0.054872315 -0.0016741422 -0.03743424 -0.08257851 -0.059916962 -0.03439103 -0.00956563
0.027927991 -0.04433335 -0.0017886001 0.094815224 -0.011306532 0.010038252 -0.08421252 -0.04369763
0.05960229 0.08139348 -0.05165084 -0.0491594 0.006386429 0.04285154 -0.040788133 -0.065323316
00000000: fbf6 daba d8c7 36bb e14d 213d f58b 003d
00000010: edee 2abd baf9 9f3d bb6b 58bc 86ed d33b
00000020: 076e 62bc 3b0d e6bc 796d d5bc bf3b f03c
00000030: f08f 71bd e815 2b3a 26ec 5e3d 4a7d 55bd
00000040: aedd b2bc c18f 0cbd 7ee0 c23d dbae b73d
00000050: 760d 8dbd 73d2 78bc a51d b7ba da11 21bc
00000060: 531a 4dbd 0e37 ad3d 9062 293c abd2 b2bd
00000070: b4d7 833c f5b5 d1bb 2724 59bc 0cb0 f73c
00000080: 40dd 443c 321f afbd f0ff a4bb 9446 30bd
00000090: 2d13 a13a 59d7 8a3b ed15 01bd 8193 abbc
000000a0: eb70 17bc cbc1 60bd e46e dbba a554 19bd
000000b0: ec1e a9bd 7d6b 75bd 9cdd 0cbd 29b9 1cbc
000000c0: 3ec9 e43c e396 35bd 766f eaba 7c2e c23d
000000d0: 083f 39bc 7b77 243c 9d77 acbd 49fc 32bd
000000e0: 8821 743d a0b1 a63d d58f 53bd 5e5b 49bd
000000f0: 4045 d13b 1985 2f3d 7511 27bd 3bc8 85bd

net.2.running_mean f4 [64]
0.23306157 0.03238066 0.101931825 0.012586813 0.022383673 6e-45 0.020003973 0.19433343
0.13949725 0.21274333 0.29628018 0.10632602 0.09210675 0.07029867 0.0056625283 0.017123874
0.01847958 0.08467406 0.0 0.0 0.00046345103 2.5204008e-05 0.226948 0.033377927
0.04439455 0.0 0.03800922 0.0 0.35321486 0.03950008 0.123320684 5.6960853e-05
0.16095415 0.0 0.13112363 0.4379238 0.3596636 0.41093025 0.039489623 0.318855
0.099873245 3.574573e-05 0.106913045 0.35943198 0.0 0.11086425 0.05819917 0.21440402
0.10868343 0.061664715 0.17481543 6e-45 0.06513273 0.45295742 0.0 0.0014338087
0.01302887 0.0 0.0076907277 0.25252074 0.2940817 0.003812422 0.3398389 0.005226274
00000000: b1a7 6e3e 95a1 043d a2c1 d03d ec38 4e3c
00000010: f75d b73c 0400 0000 5fdf a33c 58ff 463e
00000020: 5ed8 0e3e 63d9 593e 09b2 973e 75c1 d93d
00000030: 77a2 bc3d c0f8 8f3d bb8c b93b 5e47 8c3c
00000040: 7d62 973c 9869 ad3d 0000 0000 0000 0000
00000050: 58fb f239 326d d337 0e65 683e 4bb7 083d
00000060: 0fd7 353d 0000 0000 8eaf 1b3d 0000 0000
00000070: 94d8 b43e d6ca 213d 8e8f fc3d 40e9 6e38
00000080: 2ad1 243e 0000 0000 4645 063e 8c37 e03e
00000090: d425 b83e 7365 d23e dfbf 213d f640 a33e
000000a0: 588a cc3d afed 1538 3af5 da3d 7807 b83e
000000b0: 0000 0000 cc0c e33d 4162 6e3d ba8c 5b3e
000000c0: 6b95 de3d 2494 7c3d d102 333e 0400 0000
000000d0: 4f64 853d 09ea e73e 0000 0000 a3ee bb3a
000000e0: 0b77 553c 0000 0000 8002 fc3b 664a 813e
000000f0: e091 963e d4d9 793b 5dff ad3e 2a41 ab3b

net.2.running_var f4 [64]
0.042522687 0.0022234074 0.00659639 0.00075632584 0.0015329205 6e-45 0.0014899003 0.014271596
0.00048356617 0.0076937904 0.008899352 0.0022322873 0.011132246 0.0065029524 0.00025142747 0.0010584212
0.0007587655 0.001317395 6e-45 6e-45 7.907801e-06 7.8572003e-07 0.03774108 0.0035268373
0.0010957788 6e-45 0.004335862 6e-45 0.030858016 0.006831005 0.0071079894 1.3004895e-06
0.041112054 6e-45 0.0013439481 0.02883468 0.06724768 0.077795036 0.0030894298 0.065037556
0.014553631 9.1977813e-07 0.015627572 0.028083853 6e-45 0.0032917752 0.0042948653 0.06285485
0.00024064424 0.008144663 0.04329903 6e-45 0.0062159128 0.03064674 6e-45 2.7278198e-05
0.00037269396 6e-45 0.0003883488 0.0048108944 0.01684859 0.00011045089 0.020480769 0.00021399054
00000000: 452c 2e3d 96b6 113b 8826 d83b 2b44 463a
00000010: 47ec c83a 0400 0000 c248 c33a 6ad3 693c
00000020: 2787 fd39 311c fc3b 96ce 113c 914b 123b
00000030: 0664 363c b816 d53b 06d2 8339 b9ba 8a3a
00000040: e4e7 463a 71ac ac3a 0400 0000 0400 0000
00000050: bfab 0437 45ea 5235 6496 1a3d 8322 673b
00000060: 3ca0 8f3a 0400 0000 d913 8e3b 0400 0000
00000070: f3c9 fc3c a0d6 df3b 23ea e83b 7b8c ae35
00000080: 1d65 283d 0400 0000 6a27 b03a b536 ec3c
00000090: 27b9 893d 0153 9f3d 0878 4a3b 6932 853d
000000a0: 5a72 6e3c ace6 7635 6505 803c 1c10 e63c
000000b0: 0400 0000 d3ba 573b f1bb 8c3b 0bba 803d
000000c0: 7255 7c39 3171 053c 535a 313d 0400 0000
000000d0: dbae cb3b df0e fb3c 0400 0000 7cd3 e437
000000e0: 2366 c339 0400 0000 4b9b cb39 b5a4 9d3b
000000f0: 0e06 8a3c dfa1 e738 49c7 a73c a662 6039

net.3.weight f4 [128, 64, 3]
0.06713007 0.012131015 0.03162142 0.0331873 0.012328657 0.015024059 0.019782307 0.06520359
-0.012774764 0.0458253 0.0399941 0.0060062516 0.06475619 0.015999569 0.009154908 -0.050297942
-0.007904932 -0.048511554 0.047456454 -0.006665726 0.036925483 0.05159853 -0.01952299 0.03845471
0.060634267 -0.054121923 0.03168594 -0.027962042 -0.032322645 -0.058220137 -0.008393745 0.005707804
0.012617251 -0.03722173 0.025664512 -0.03627219 -0.051297303 -0.03366028 -0.05945152 -0.001041564
0.035317205 -0.016465014 0.025837325 0.050492443 0.032264043 0.029555157 -0.011173324 -0.011002397
0.049995042 -0.059984826 0.0029060666 0.059839334 0.006888151 0.049973365 -0.015003296 -0.01166117
0.0011492338 -0.063156724 0.009319682 0.027551563 -0.017116968 -0.010624985 -0.046079807 -0.0046826694
-0.0018366937 0.0033264095 -0.034622904 0.027462149 -0.0017291729 -0.00016248677 0.038368702 0.032042418
0.049284175 -0.0396443 0.0065886183 0.04956641 -0.04061088 -0.03545436 -0.05834353 -0.029832944
0.017479975 -0.007065203 -0.06650876 0.015000452 -0.042346496 0.031022256 0.036804993 0.011531093
0.06447777 0.062333714 0.036614638 -0.0028051469 -0.052312944 0.006124093 -0.00037104858 0.0016377387
0.054043315 0.004415295 0.06799357 0.017549673 0.023076935 0.00059524615 0.0002587153 -0.052027497
-0.067834854 0.05063223 -0.057451334 -0.025237435 0.023841245 0.019249676 0.04022339 -0.0063170856
-0.069559164 0.009126691 -0.05672224 -0.029937044 -0.0045453524 -0.0068235174 0.041273 0.0650608
-0.0046035685 -0.025981266 -0.039822564 -0.0037270244 -0.0050857016 -0.0033613755 -0.050618894 0.030728618
-0.0010500702 -0.051841836 -0.040049512 -0.05400507 -0.078483455 -0.071864896 -0.05699675 0.06595493
0.045272816 0.06165166 0.012460459 -0.012147098 -0.05815685 0.047644313 -0.06532648 -0.05940928
0.0047573 -0.002349864 -0.05787108 0.006889123 0.031211523 0.028439444 -0.013464385 -0.067898445
0.03337018 0.013359107 0.07560566 0.0774967 -0.05124447 -0.020610223 0.027005732 -0.033538025
0.06873344 0.015846923 -0.012482093 -0.033717707 -0.039870117 -0.03868385 -0.04360239 -0.029160898
0.02306389 0.016832782 0.023213133 -0.0227505 0.065654345 -0.038730513 -0.027553778 -0.07748046
-0.08675533 -0.0018916238 0.057071295 0.05893887 -0.03638159 -0.039614297 -0.043231178 0.021770658
0.024753245 0.036481805 -0.019653881 -0.047872774 0.036402088 -0.116740055 -0.11493882 -0.08831521
0.010460449 0.055495296 0.039246947 -0.028298397 -0.03296607 0.07114004 -0.037252 0.025096443
0.0062389434 0.00083775277 0.013946863 0.018166026 0.042303417 0.022170447 -0.029986441 0.019548329
-0.012008615 0.016278256 -0.013114772 -0.04231933 0.053266447 0.029768722 0.031642254 0.025745874
-0.04541218 0.0092927 -0.008886963 -0.068045326 -0.02117966 -0.02667756 0.030927168 -0.039102953
-0.010561392 0.013592296 -0.016333764 -0.01558117 0.03832483 -0.05572352 -0.022351898 -0.044805437
-0.00215176 -0.019199751 -0.0060409135 -0.004290621 -0.013296061 0.020773074 0.09625337 0.07128021
0.024029313 0.037297018 -0.023573732 0.043193243 0.063248895 0.050652266 0.04140293 -0.012266819
0.06344207 -0.060091577 0.041937534 -0.0063584116 0.023606706 0.05597094 0.018569883 -0.022949573
00000000: 7d7b 893d 2ac1 463c 7685 013d 68ef 073d
00000010: 23fe 493c 7927 763c 810e a23c 7689 853d
00000020: 3e4d 51bc 4fb3 3b3d dad0 233d 17d0 c43b
00000030: e59e 843d 8711 833c 78fe 153c 3705 4ebd
00000040: b083 01bc 0db4 46bd b361 423d 2a6c dabb
00000050: 2d3f 173d fb58 533d adee 9fbc b082 1d3d
00000060: a35b 783d f3ae 5dbd 1ec9 013d a710 e5bc
00000070: c064 04bd 3d78 6ebd eb85 09bc 8808 bb3b
00000080: 96b8 4e3c d075 18bd 623e d23c 2692 14bd
00000090: 1f1d 52bd 5ddf 09bd 7083 73bd 1785 88ba
000000a0: c6a8 103d a3e1 86bc cca8 d33c 2ad1 4e3d
000000b0: 4d27 043d a81d f23c 5110 37bc 6643 34bc
000000c0: 9ac7 4c3d a6b2 75bd b573 3e3b 171a 753d
000000d0: 00b6 e13b dfb0 4c3d 62d0 75bc 7e0e 3fbc
000000e0: e3a1 963a 5058 81bd 94b1 183c d1b3 e13c
000000f0: e238 8cbc 6b14 2ebc 2ebe 3cbd 1471 99bb
00000100: 37bd f0ba e4ff 593b bfd0 0dbd 4df8 e03c
00000110: 6aa5 e2ba 3661 2ab9 8028 1d3d e93e 033d
00000120: 34de 493d 1062 22bd 56e5 d73b 2606 4b3d
00000130: 9857 26bd 9738 11bd a0f9 6ebd 3864 f4bc
00000140: 2a32 8f3c 3883 e7bb bf35 88bd 75c4 753c
00000150: 8573 2dbd 6322 fe3c d5c0 163d e9ec 3c3c
00000160: ec0c 843d a351 7f3d 3bf9 153d 8ed6 37bb
00000170: 1946 56bd 9eac c83b 4c89 c2b9 64a9 d63a
00000180: 865c 5d3d 2eae 903b 3640 8b3d 55c4 8f3c
00000190: d70b bd3c 4b0a 1c3a 2ea4 8739 c91a 55bd
000001a0: 00ed 8abd be63 4f3d 1752 6bbd bdbe cebc
000001b0: b74e c33c 7fb1 9d3c 48c1 243d 8eff cebb
000001c0: 0975 8ebd 1e88 153c 9455 68bd 883e f5bc
000001d0: 2ef1 94bb d097 dfbb e10d 293d 993e 853d
000001e0: 88d9 96bb aad6 d4bc fc1c 23bd 1841 74bb
000001f0: f5a5 a6bb 864a 5cbb c255 4fbd 95ba fb3c
00000200: 82a2 89ba 1b58 54bd f50a 24bd 6c34 5dbd
00000210: efbb a0bd e72d 93bd 6d75 69bd 6113 873d
00000220: fd6f 393d 7386 7c3d f426 4c3c 9f04 47bc
00000230: e135 6ebd af26 433d e4c9 85bd 2557 73bd
00000240: 20e3 9b3b 2d00 1abb 3a0a 6dbd 27be e13b
00000250: 4faf ff3c d6f9 e83c b999 5cbc 570e 8bbd
00000260: 2baf 083d 28e0 5a3c 24d7 9a3d 97b6 9e3d
00000270: b9e5 51bd c5d6 a8bc 203b dd3c 2b5f 09bd
00000280: 1ec4 8c3d 68d1 813c b181 4cbc 941b 0abd
00000290: d94e 23bd f572 1ebd 6b98 32bd d6e2 eebc
000002a0: 7cf0 bc3c e7e4 893c 7829 be3c 425f babc
000002b0: c975 863d e3a3 1ebd 76b8 e1bc 13ae 9ebd
000002c0: c7ac b1bd 5df0 f7ba 97c3 693d e269 713d
000002d0: dd04 15bd 9a42 22bd 2d13 31bd 6158 b23c
000002e0: 51c7 ca3c f26d 153d 2d01 a1bc 3e16 44bd
000002f0: 5b1a 153d 6915 efbd 0b65 ebbd 9bde b4bd
00000300: 4e62 2b3c 094f 633d 68c1 203d 0ad2 e7bc
00000310: 6e07 07bd dfb1 913d 8e95 18bd 0e97 cd3c
00000320: 0d70 cc3b a39c 5b3a 6281 643c ebd0 943c
00000330: 5946 2d3d cc9e b53c 20a6 f5bc d123 a03c
00000340: c8bf 44bc fa59 853c 57df 56bc 0957 2dbd
00000350: eb2d 5a3d 89dd f33c 4f9b 013d 03e9 d23c
00000360: 1f02 3abd 6940 183c a09a 11bc 595b 8bbd
00000370: f780 adbc e68a dabc f95a fd3c 6b2a 20bd
00000380: b009 2dbc 39b2 5e3c 63ce 85bc 2a48 7fbc
00000390: 7ffa 1c3d 593e 64bd 541b b7bc e885 37bd
000003a0: 8b04 0dbb cc48 9dbc dbf2 c5bb 5698 8cbb
000003b0: b9d7 59bc 4b2c aa3c 7d20 c53d 5cfb 913d
000003c0: 1fd9 c43c c2c4 183d b31d c1bc 66eb 303d
000003d0: a388 813d c078 4f3d 1e96 293d c5fa 48bc
000003e0: eaed 813d 9622 76bd b1c6 2b3d 395a d0bb
000003f0: da62 c13c c941 653d de1f 983c be00 bcbc

net.3.bias f4 [128]
0.06963416 -0.0698305 0.021945234 -0.043261405 0.011336095 -0.067137346 0.023915363 -0.07156133
0.081512034 -0.08670255 -0.021215092 0.024786487 0.053177007 -0.02523164 0.032047708 0.068424046
-0.005827688 -0.06403198 0.015542999 0.035347886 0.0351195 0.029897213 0.06693855 -0.005647164
-0.033806693 0.056077305 -0.0036577808 -0.0141024655 -0.047036704 -0.04336607 -0.05276599 0.010229198
0.009215246 0.027947797 -0.084588826 -0.046434678 -0.0051051895 -0.012855477 -0.029011795 0.00471769
-0.03350779 -0.0025938468 0.017385667 0.009519943 0.024087807 -0.04361929 -0.13244927 -0.03221927
0.014611221 -0.047946204 0.010261934 0.054106064 0.077947564 -0.059724893 -0.06592071 -0.06154368
-0.017864043 -0.023445198 -0.08762332 -0.060431745 -0.069558956 0.003563963 0.0069856807 0.008787881
-0.043062553 0.09607759 0.08341165 -0.08117381 0.035800666 0.03278923 -0.021421425 -0.032230213
-0.065450504 -0.044276696 -0.005121394 -0.004234131 0.028030124 -0.0129603585 0.0040225605 -0.07395509
-0.051552188 0.03815921 -0.007962873 -0.0129007455 0.061577287 -0.013949627 -0.08729799 0.033983007
-0.018010104 -0.024639338 -0.052087694 0.06439155 -0.08335506 -0.073834345 -0.031876158 -0.04347447
0.07414512 -0.025307087 -0.012782532 0.0034085426 -0.0016877919 -0.059125107 0.0621246 -0.047606777
-0.0047940356 0.022990167 -0.04941094 -0.062326636 0.061139956 -0.082893044 0.029693436 0.00857589
0.03642915 -0.007784707 -0.030665524 -0.057574656 -0.044198122 -0.081570365 -0.019218784 -0.08660943
0.003863612 0.04046717 -0.0888082 -0.057489745 0.037624888 0.0059586843 -0.0536866 0.0031335403
00000000: 5b9c 8e3d 4b03 8fbd 7ec6 b33c df32 31bd
00000010: 07bb 393c 4e7f 89bd 27ea c33c bf8e 92bd
00000020: c8ef a63d 1b91 b1bd 46cb adbc 080d cb3c
00000030: 22d0 593d 96b2 cebc 7544 033d e821 8c3d
00000040: 31f6 bebb 3323 83bd 10a8 7e3c f2c8 103d
00000050: 77d9 0f3d 00eb f43c 1417 893d d80b b9bb
00000060: e378 0abd 51b1 653d 61b7 6fbb 070e 67bc
00000070: 8fa9 40bd 9fa0 31bd 2721 58bd 5e98 273c
00000080: 8bfb 163c c7f2 e43c e83c adbd 4a32 3ebd
00000090: 6f49 a7bb c79f 52bc 25aa edbc da96 9a3b
000000a0: 773f 09bd 87fd 29bb 636c 8e3c 89f9 1b3c
000000b0: cb53 c53c 24aa 32bd c8a0 07be 5af8 03bd
000000c0: e763 6f3c 3d63 44bd ac21 283c 529e 5d3d
000000d0: f9a2 9f3d 17a2 74bd 7001 87bd 3a15 7cbd
000000e0: 9d57 92bc 2510 c0bc db73 b3bd 4787 77bd
000000f0: ed74 8ebd 6191 693b 23e8 e43b 0bfb 0f3c
00000100: 5c62 30bd 54c4 c43d bad3 aa3d 743e a6bd
00000110: b8a3 123d 004e 063d fc7b afbc d403 04bd
00000120: ea0a 86bd 7b5b 35bd 5ed1 a7bb 77be 8abb
00000130: 6e9f e53c af57 54bc afcf 833b c475 97bd
00000140: 6328 53bd d54c 1c3d b676 02bc a65d 53bc
00000150: 7738 7c3d fa8c 64bc 4ac9 b2bd c431 0b3d
00000160: ed89 93bc 70d8 c9bc e859 55bd b8df 833d
00000170: 0fb6 aabd 7636 97bd 9390 02bd 4912 32bd
00000180: 66d9 973d cf50 cfbc d36d 51bc db61 5f3b
00000190: e638 ddba 2b2d 72bd 5d76 7e3d 53ff 42bd
000001a0: 4917 9dbb e055 bc3c 2063 4abd 374a 7fbd
000001b0: e46d 7a3d d4c3 a9bd a63f f33c e481 0c3c
000001c0: bb36 153d db16 ffbb 4436 fbbc 67d3 6bbd
000001d0: 1709 35bd 5d0e a7bd b670 9dbc 4960 b1bd
000001e0: a734 7d3b e7c0 253d 13e1 b5bd 5e7a 6bbd
000001f0: 8e1c 1a3d 1141 c33b 7be6 5bbd 155c 4d3b

net.5.weight f4 [128]
1.2693714 1.2329508 1.2638687 1.2326952 1.236355 1.2241026 1.2553433 1.243438
1.2520387 1.1847482 1.2523297 1.2227463 1.2411937 1.2124541 1.1999904 1.239469
1.2200955 1.2279403 1.1552382 1.2294401 1.1985048 1.225247 1.2559896 1.2276617
1.2687278 1.1622033 1.1467072 1.2392614 1.2414147 1.2200106 1.2205691 1.195436
1.2207034 1.2814794 1.1813924 1.2035239 1.2052039 1.2113813 1.257459 1.2146554
1.2502588 1.2166001 1.2165234 1.1909504 1.1897503 1.2460049 1.2329545 1.2419845
1.2246697 1.2187225 1.2689947 1.0877662 1.2449182 1.238759 1.2812434 1.1986971
1.2615086 1.2505543 1.28066 1.2440271 1.2348263 1.1782695 1.2632114 1.2754219
1.1700679 1.2687402 1.2875313 1.2121099 1.2029747 1.2495966 1.2463204 1.2505989
1.2220936 1.2958409 1.150753 1.2722003 1.1923318 1.2651937 1.1446153 1.2579278
1.2509097 1.2336748 1.2175397 1.2027425 1.2654637 1.2232187 1.1898655 1.1871302
1.1851153 1.2160832 1.1352065 1.2432879 1.229329 1.1413481 1.2058889 1.2638601
1.2487478 1.220467 1.2422947 1.1898067 1.1825801 1.2282289 1.2389091 1.2503875
1.2569534 1.2158163 1.2425374 1.2159739 1.2432691 1.2689714 1.2089305 1.2550308
1.2607619 1.2606918 1.2388792 1.2290221 1.2591132 1.2393672 1.1848158 1.2343525
1.2099857 1.2690591 1.1939774 1.2465067 1.2301652 1.1764276 1.2314576 1.2145934
00000000: c37a a23f 55d1 9d3f 73c6 a13f f5c8 9d3f
00000010: e140 9e3f 65af 9c3f 17af a03f fa28 9f3f
00000020: ce42 a03f d4a5 973f 574c a03f f382 9c3f
00000030: 6fdf 9e3f b231 9b3f 4999 993f eca6 9e3f
00000040: 172c 9c3f 262d 9d3f d8de 933f 4b5e 9d3f
00000050: 9b68 993f e5d4 9c3f 44c4 a03f 0524 9d3f
00000060: ac65 a23f 14c3 943f 4dc7 923f 1ea0 9e3f
00000070: ade6 9e3f 4f29 9c3f 9c3b 9c3f 0c04 993f
00000080: 0240 9c3f 8407 a43f de37 973f 120d 9a3f
00000090: 1f44 9a3f 8b0e 9b3f 6bf4 a03f d479 9b3f
000000a0: 7b08 a03f 8db9 9b3f 0ab7 9b3f 1071 983f
000000b0: bd49 983f 177d 9f3f 74d1 9d3f 59f9 9e3f
000000c0: fac1 9c3f 19ff 9b3f 6b6e a23f ec3b 8b3f
000000d0: 7b59 9f3f a88f 9e3f c9ff a33f e86e 993f
000000e0: 1d79 a13f 2a12 a03f abec a33f 483c 9f3f
000000f0: ca0e 9e3f 89d1 963f e9b0 a13f 0641 a33f
00000100: c9c4 953f 1466 a23f d3cd a43f 6b26 9b3f
00000110: 13fb 993f c8f2 9f3f 6d87 9f3f a013 a03f
00000120: 906d 9c3f 1dde a53f e04b 933f 76d7 a23f
00000130: 549e 983f def1 a13f c182 923f c703 a13f
00000140: cf1d a03f 0ee9 9d3f 57d8 9b3f 77f3 993f
00000150: b7fa a13f 6e92 9c3f 834d 983f e2f3 973f
00000160: dcb1 973f 9da8 9b3f 724e 913f 0f24 9f3f
00000170: a75a 9d3f b217 923f 915a 9a3f 2bc6 a13f
00000180: f8d6 9f3f 4338 9c3f 8303 9f3f 964b 983f
00000190: c95e 973f 9b36 9d3f 9394 9e3f b30c a03f
000001a0: d9e3 a03f de9f 9b3f 770b 9f3f 08a5 9b3f
000001b0: 7123 9f3f a86d a23f 3cbe 9a3f d9a4 a03f
000001c0: a560 a13f 595e a13f 9893 9e3f 9950 9d3f
000001d0: 9f2a a13f 96a3 9e3f 0ba8 973f 43ff 9d3f
000001e0: d0e0 9a3f 8770 a23f 40d4 983f 888d 9f3f
000001f0: 0e76 9d3f 2e95 963f 67a0 9d3f cc77 9b3f

net.5.bias f4 [128]
0.007677528 -0.035769325 -0.015579026 0.043111477 -0.036543522 0.03180203 0.0011674007 -0.032449394
0.020941291 0.006829656 -0.05481065 0.0057226587 -0.021374123 0.02177042 0.0020210862 0.019835852
-0.03787674 0.0006265727 -0.026792333 -0.015930928 -0.030667402 -0.011963815 -0.0052879495 -0.049066838
-0.01660747 -0.01547273 -0.009520863 -0.0008536023 -0.0089656105 -0.04295019 -0.017695772 -0.0057818866
-0.02346619 -0.016097015 -0.053013355 0.010286153 -0.014470324 -0.019086517 -0.010132908 0.003860432
0.020140795 -0.03079225 -0.019789448 0.04222588 0.022532085 0.036245685 -0.045747183 -0.049123548
0.026141183 -0.0073312838 -0.032550205 -0.032027155 0.022848748 -0.015026079 0.005149405 0.016639471
-0.023999663 -0.032444224 0.008682166 0.0034599963 -0.029174913 -0.008446642 -0.014449938 0.018470181
0.0061755427 -0.0042701205 0.0158484 0.015160268 -0.014839801 -0.057073448 0.027669802 0.013578504
0.006892053 -0.05690215 -0.053065132 0.013793213 0.009254602 -0.028400304 -0.0048026694 -0.02841699
-0.02871152 -0.015932344 -0.041800745 0.053005435 0.0036825119 -0.021791983 -0.00578321 0.0030521583
-0.02562805 0.010869488 -0.025745757 -0.014814733 -0.020182658 -0.06343633 0.02319776 -0.036951084
0.017679969 -0.021504685 0.001893657 0.03276086 0.0047668815 -0.015254025 0.04106517 -0.02028446
-0.027025301 0.01851464 -0.023282703 0.002169321 -0.008162544 -0.031069133 0.0053394674 -0.030342631
0.025996722 -0.008651918 -0.047026694 -0.009530242 -0.0054728687 -0.00578441 -0.023338906 -0.0065303002
-0.014824832 0.016844679 -0.025490895 -0.018618306 0.024582947 -0.008976595 -0.0011511354 -0.03516086
00000000: c693 fb3b db82 12bd 2c3f 7fbc a995 303d
00000010: a9ae 15bd d842 023d 7803 993a a8e9 04bd
00000020: 128d ab3c 4fcb df3b 2281 60bd 2485 bb3b
00000030: c918 afbc e157 b23c 3374 043b cc7e a23c
00000040: a424 1bbd 9540 243a 987b dbbc 9481 82bc
00000050: 343a fbbc e103 44bc 8946 adbb 4ffa 48bd
00000060: 640c 88bc 5581 7dbc 65fd 1bbc 48c4 5fba
00000070: 7fe4 12bc 8aec 2fbd b9f6 90bc fb75 bdbb
00000080: 2b3c c0bc e3dd 83bc 8824 59bd 4187 283c
00000090: f014 6dbc 545b 9cbc 7f04 26bc 4dff 7c3b
000000a0: 4ffe a43c 0740 fcbc 7b1d a2bc 0bf5 2c3d
000000b0: 3595 b83c 5b76 143d 6661 3bbd c635 49bd
000000c0: 0926 d63c 443b f0bb 5d53 05bd e82e 03bd
000000d0: 4c2d bb3c f12f 76bc 57bc a83b 804f 883c
000000e0: f19a c4bc 3ce4 04bd a53f 0e3c 1bc1 623b
000000f0: 3a00 efbc c963 0abc 6fbf 6cbc c74e 973c
00000100: 355c ca3b 5eec 8bbb 81d4 813c c662 783c
00000110: a322 73bc d9c5 69bd c8ab e23c 6078 5e3c
00000120: bbd6 e13b 3b12 69bd d35a 59bd eefc 613c
00000130: 9da0 173c c1a7 e8bc b65f 9dbb bfca e8bc
00000140: 6c34 ebbc 8c84 82bc 4237 2bbd 3a1c 593d
00000150: 4c56 713b 1a85 b2bc 1581 bdbb b806 483b
00000160: ebf1 d1bc f015 323c c4e8 d2bc 7eb9 72bc
00000170: 1a56 a5bc e8ea 81bd 3b09 be3c 055a 17bd
00000180: 95d5 903c 982a b0bc 9634 f83a 4030 063d
00000190: 8033 9c3b 05ec 79bc f433 283d 992b a6bc
000001a0: 2a64 ddbc 04ac 973c 5ebb bebc 2b2b 0e3b
000001b0: 31bc 05bc b284 febc b3f6 ae3b 1c91 f8bc
000001c0: 14f7 d43c c6c0 0dbc 109f 40bd bb24 1cbc
000001d0: c055 b3bb 268b bdbb 3c31 bfbc 21fc d5bb
000001e0: dae3 72bc dafd 893c 48d2 d0bc 6b85 98bc
000001f0: 2d62 c93c 9112 13bc b2e1 96ba d504 10bd

net.5.running_mean f4 [128]
0.15674032 0.049557306 0.021346662 0.0147315655 0.015946524 0.082136095 0.12705149 0.011853127
0.36544487 0.019861368 0.068372674 0.060585577 0.11019204 0.069491975 0.06384382 0.094471395
0.034141943 0.031026294 0.058865655 0.08330441 0.0764342 0.12177459 0.14115354 0.0372627
0.012038798 0.25818205 0.074783675 0.072500385 0.063839234 0.01321179 0.03146428 0.047249116
0.040478002 0.017187385 0.027968574 0.14694995 0.033126008 0.06006765 0.035644367 0.036595922
0.13756405 0.054174095 0.09545236 0.1055008 0.12094597 0.027139854 0.01769081 0.04160639
0.07532534 0.047800604 0.015414046 0.21010572 0.37859666 0.06411156 0.03393933 0.042008776
0.044663694 0.08256169 0.03519995 0.08923899 0.04388284 0.061061915 0.018023787 0.053612854
0.07857268 0.31557763 0.26500133 0.042073034 0.03988947 0.042468388 0.03001494 0.032343503
0.015315443 0.029110275 0.05509916 0.3094515 0.053708132 0.0155627 0.021920146 0.05956933
0.04784726 0.14011998 0.018065697 0.03543243 0.38733688 0.060755946 0.017033506 0.05720251
0.04439048 0.046010178 0.016020663 0.25273833 0.010348215 0.006544727 0.028426904 0.048278242
0.11299105 0.073830016 0.13886881 0.039331306 0.021443171 0.056210123 0.37387478 0.08520715
0.07733914 0.017101988 0.037016075 0.019902818 0.28226694 0.019890457 0.070608124 0.035522547
0.4368373 0.07412445 0.044624552 0.09432344 0.026614279 0.028000051 0.034449853 0.04178834
0.06337264 0.1389935 0.03722896 0.11082401 0.041211043 0.04741495 0.016107637 0.08888955
00000000: 8980 203e 9afc 4a3d 32df ae3c aa5c 713c
00000010: 49a2 823c f836 a83d c919 023e 9e33 423c
00000020: 971b bb3e 4fb4 a23c f906 8c3d 9528 783d
00000030: 5dac e13d cf51 8e3d 8cc0 823d 387a c13d
00000040: 6cd8 0b3d db2a fe3c 1d1d 713d 819b aa3d
00000050: 8989 9c3d f564 f93d 8e8a 103e c6a0 183d
00000060: 613e 453c 7030 843e 2f28 993d 157b 943d
00000070: 25be 823d 4376 583c b0e0 003d 4a88 413d
00000080: 43cc 253d 8fcc 8c3c 5a1e e53c 0c7a 163e
00000090: 23af 073d 7f09 763d d4ff 113d 9be5 153d
000000a0: 97dd 0c3e a8e5 5d3d 877c c33d ce10 d83d
000000b0: 85b2 f73d 6654 de3c 51ec 903c 766b 2a3d
000000c0: 2c44 9a3d 91ca 433d 328b 7c3c f425 573e
000000d0: 6cd7 c13e ec4c 833d f803 0b3d 6511 2c3d
000000e0: 47f1 363d 1a16 a93d d32d 103d eec2 b63d
000000f0: 7ebe 333d 0f1c 7a3d 9fa6 933c 2799 5b3d
00000100: b7ea a03d 6493 a13e 41ae 873e c654 2c3d
00000110: 2463 233d 55f3 2d3d e4e1 f53c 9f7a 043d
00000120: a0ed 7a3c ac78 ee3c a8af 613d 6d70 9e3e
00000130: 0ffd 5b3d b2fa 7e3c e191 b33c f8fe 733d
00000140: 7dfb 433d 9d7b 0f3e 83fe 933c 9921 113d
00000150: 0551 c63e 3adb 783d da89 8b3c 2e4d 6a3d
00000160: cbd2 353d 2b75 3c3d c43d 833c eb66 813e
00000170: 8f8b 293c 2675 d63b 8adf e83c 68bf 453d
00000180: da67 e73d 3134 973d a033 0e3e dd19 213d
00000190: 97a9 af3c 963c 663d 846c bf3e 1681 ae3d
000001a0: fc63 9e3d 7819 8c3c 2b9e 173d 3c0b a33c
000001b0: 4b85 903e 50f1 a23c fe9a 903d 1780 113d
000001c0: 23a9 df3e 8fce 973d 3cc8 363d a62c c13d
000001d0: 3006 da3c 5d60 e53c 4a1b 0d3d 402a 2b3d
000001e0: 84c9 813d 5054 0e3e 657d 183d b3f7 e23d
000001f0: e9cc 283d 2e36 423d 2af4 833c b90b b63d

net.5.running_var f4 [128]
0.010789708 0.008595384 0.0026047009 0.0012116727 0.0018742438 0.013775312 0.03313332 0.0012055977
0.054310486 0.0027577295 0.022494772 0.007981401 0.015850466 0.009565925 0.0077718296 0.008155676
0.007865867 0.0062878304 0.0138384765 0.006499337 0.013073173 0.008130751 0.008911698 0.007841346
0.0016482439 0.02731614 0.0205519 0.018119734 0.009451566 0.0021714221 0.005871269 0.012864975
0.008913204 0.0022598591 0.008175042 0.024898618 0.003297346 0.0061148363 0.004069216 0.0039027703
0.01952735 0.016236298 0.028715665 0.010563767 0.024921855 0.0020794563 0.0033647506 0.011341431
0.0055222237 0.0061279386 0.001804131 0.022711283 0.036759187 0.016699884 0.0034892685 0.0044623185
0.011060103 0.0070673674 0.0038571043 0.028672881 0.012492154 0.008482977 0.0019271714 0.0046906504
0.012833425 0.03775306 0.013503509 0.006409817 0.008839171 0.009711068 0.0040642316 0.00359126
0.0015793937 0.0055172923 0.008746625 0.035807963 0.0060410793 0.0016032066 0.0036704517 0.018631069
0.0068648746 0.01208905 0.001928187 0.0033881792 0.01798389 0.010477528 0.002705488 0.013329348
0.010935677 0.0055417647 0.0019593416 0.032535557 0.0011711392 0.0010253853 0.0028934425 0.015046467
0.008681567 0.006140583 0.045138042 0.005118415 0.0025487496 0.01002266 0.028065613 0.025492648
0.010349254 0.0016701649 0.0033910973 0.0026178313 0.030519743 0.0029368596 0.011161083 0.0036750953
0.012957225 0.013245783 0.013966835 0.029419169 0.0033306086 0.002789456 0.004726573 0.004864909
0.013271186 0.00978748 0.010864362 0.028079202 0.0045586666 0.008638695 0.0016847545 0.016220279
00000000: 51c7 303c a7d3 0c3c a1b3 2a3b fdd0 9e3a
00000010: 30a9 f53a d9b1 613c ceb6 073d 2505 9e3a
00000020: ac74 5e3d 06bb 343b f546 b83c 6cc4 023c
00000030: d6d8 813c 66ba 1c3c d5aa fe3b 629f 053c
00000040: d6df 003c 250a ce3b c7ba 623c 64f8 d43b
00000050: dd30 563c d736 053c 5f02 123c fd78 003c
00000060: e309 d83a 19c6 df3c 755c a83c d66f 943c
00000070: beda 1a3c 6b4e 0e3b c663 c03b 9ec7 523c
00000080: b008 123c 251a 143b 9df0 053c 30f8 cb3c
00000090: 4918 583b f75e c83b 0f57 853b 9fc5 7f3b
000000a0: d2f7 9f3c fc01 853c 1d3d eb3c a613 2d3c
000000b0: eb28 cc3c 7d47 083b 2683 5c3b 69d1 393c
000000c0: c5f3 b43b e0cc c83b 9778 ec3a 030d ba3c
000000d0: cd90 163d 32ce 883c 36ac 643b a438 923b
000000e0: 6f35 353c 6095 e73b 79c7 7c3b 64e3 ea3c
000000f0: e4ab 4c3c 2ffc 0a3c 2499 fc3a 07b4 993b
00000100: 4943 523c f4a2 1a3d d23d 5d3c 7109 d23b
00000110: 2cd2 103c 2c1b 1f3c 3f2d 853b 585b 6b3b
00000120: a903 cf3a 67ca b43b 014e 0f3c 5fab 123d
00000130: 3ff4 c53b b022 d23a f68b 703b 2fa0 983c
00000140: bef2 e03b 2711 463c 38bb fc3a 370c 5e3b
00000150: f352 933c f0a9 2b3c 8e4e 313b 5663 5a3c
00000160: 8e2b 333c b197 b53b 4c68 003b 0144 053d
00000170: e980 993a 3966 863a e99f 3d3b 7585 763c
00000180: 223d 0e3c f236 c93b abe2 383d 61b8 a73b
00000190: ec08 273b 1536 243c dbe9 e53c f5d5 d03c
000001a0: eb8f 293c 6fe9 da3a 2c3d 5e3b ec8f 2b3b
000001b0: 8a04 fa3c 5478 403b fadc 363c ded9 703b
000001c0: 8a4a 543c d704 593c 27d5 643c 7800 f13c
000001d0: 5746 5a3b 4ecf 363b 5ee1 9a3b d169 9f3b
000001e0: 636f 593c ab5b 203c 7000 323c 5b06 e63c
000001f0: de60 953b 5089 0d3c fbd2 dc3a 64e0 843c

net.9.weight f4 [7, 128]
0.17330237 0.16040485 0.0985662 -0.02840606 -0.16592225 0.09360737 0.1200676 -0.13432288
-0.19182761 -0.05948261 0.13362916 0.17217338 0.26710695 0.17320885 0.104488865 -0.066350654
0.022737812 -0.03719095 0.035816245 0.19928905 0.15948388 -0.17371261 0.19450319 -0.02391654
0.15929982 -0.08994167 0.07956231 0.23215438 0.16164051 -0.0270388 0.25631496 0.22109784
0.25549296 -0.008342343 0.07687016 0.22511874 0.03358637 -0.015982103 0.118051335 -0.1119955
-0.20670378 -0.0053894925 0.10558558 -0.04954027 0.07417642 -0.23411745 -0.07340605 0.1414004
-0.10650192 0.2007584 -0.12847154 -0.16433305 -0.18183231 0.22674483 -0.034720566 0.16430992
0.21593599 0.099342205 0.058623515 0.16517718 0.23505221 -0.20011565 -0.17512049 -0.081770584
0.03205693 -0.19106315 0.08094226 -0.097793646 0.24290442 0.23312412 -0.08670879 -0.18355201
-0.15934676 0.06815117 0.11324313 -0.19085866 0.21106169 -0.111681774 0.070305236 0.20012313
0.156151 0.02713172 -0.024337208 -0.12533712 -0.2077093 0.08092462 -0.05623186 0.071457356
-0.0318958 0.20429099 -0.032472268 -0.21672183 -0.1531274 -0.059593562 0.122531325 0.10088011
0.18995814 0.19606575 0.18301345 0.06986569 -0.072137915 0.18436304 -0.24587052 0.20645621
0.19398983 -0.1753591 0.19777998 -0.14753234 -0.15876886 0.16697828 0.2263498 -0.15818325
-0.24243209 0.18044055 0.11873089 0.11700276 -0.17288978 0.15479612 -0.08861758 -0.13596155
0.19183393 0.15370242 0.18278076 -0.010411014 -0.12461405 0.082386896 -0.15297905 0.1266347
-0.1051616 0.18917762 0.10688316 -0.07384723 0.16207835 -0.15012217 0.10567658 0.2034897
-0.11317333 0.16967894 0.13020833 -0.08659809 0.16518018 -0.105718724 0.1451463 0.10315544
0.2001446 -0.0673703 0.14246976 -0.003982694 0.11061789 0.13409603 -0.09331761 0.1943304
0.06611426 -0.08383087 0.12266009 0.07744563 -0.0066714035 0.2455059 0.053919543 0.12592049
0.027585715 0.14280139 0.20528296 -0.0075405356 -0.069023594 0.18032989 -0.0056211203 0.0702511
-0.07464161 0.1659513 0.18954925 -0.030897198 -0.019131871 -0.13752875 0.18600172 0.19853747
0.0061687925 -0.04433215 0.1781068 -0.070629716 -0.13293295 0.15905845 0.08075079 -0.113452554
0.1386372 -0.04059421 -0.089822285 -0.09221328 0.1998764 0.04924524 -0.0038393422 0.09011622
0.02305885 -0.0636989 -0.14888786 0.03669704 -0.013284525 0.23721291 0.065071635 0.034089025
0.039311025 0.26669225 0.06433988 -0.16143043 0.03743829 0.13596734 0.13953316 0.19968154
-0.09158 -0.053853985 0.1850029 -0.112149134 -0.13749737 -0.12921345 0.16386549 0.12320146
0.14650786 -0.046735495 0.20843165 -0.03826987 0.021597395 0.22661468 -0.10855042 0.1816425
-0.09262577 0.06551172 -0.1148541 0.022745669 0.035584338 0.12406394 -0.17604798 0.067204125
0.026057918 -0.029090734 0.003720721 0.11336361 -0.04363561 0.102894336 -0.047032963 0.1659853
-0.19891278 0.1164827 0.15598041 0.076272786 0.06556867 -0.09319275 0.14114739 -0.14264195
0.092255645 -0.119916074 0.20066747 -0.12609851 0.04087245 -0.12085724 0.0978799 0.12559283
00000000: 2d76 313e 2b41 243e 13dd c93d d3b3 e8bc
00000010: 86e7 29be 39b5 bf3d 00e6 f53d f08b 09be
00000020: 756e 44be 0aa4 73bd 15d6 083e 384e 303e
00000030: 3ec2 883e a95d 313e 42fe d53d dae2 87bd
00000040: a644 ba3c 8a55 18bd 0eb4 123d 6e12 4c3e
00000050: be4f 233e b8e1 31be d82b 473e 9fec c3bc
00000060: 7e1f 233e 5733 b8bd 90f1 a23d e1b9 6d3e
00000070: 1785 253e 7980 ddbc b73b 833e 7967 623e
00000080: f9cf 823e 53ae 08bc 1a6e 9d3d 8785 663e
00000090: dd91 093d e6ec 82bc e6c4 f13d e65d e5bd
000000a0: 28aa 53be 579a b0bb 413d d83d bdea 4abd
000000b0: cfe9 973d 7cbc 6fbe e955 96bd 44cb 103e
000000c0: ae1d dabd 9c93 4d3e 0b8e 03be ec46 28be
000000d0: 4032 3abe cc2f 683e 2737 0ebd dc40 283e
000000e0: 531e 5d3e ed73 cb3d 361f 703d 3524 293e
000000f0: 87b1 703e 1eeb 4cbe c952 33be 5677 a7bd
00000100: 214e 033d 0fa6 43be 0ec5 a53d 0948 c8bd
00000110: f0bb 783e 17b8 6e3e 6194 b1bd 0ff5 3bbe
00000120: cc2b 23be d792 8b3d 04ec e73d 7470 43be
00000130: 8e20 583e 6ab9 e4bd 31fc 8f3d 14ed 4c3e
00000140: 0ce6 1f3e 5743 de3c d35e c7bc 6058 00be
00000150: bfb1 54be cfbb a53d 6153 66bd 3c58 923d
00000160: 2ca5 02bd a831 513e a401 05bd 54ec 5dbe
00000170: 6ecd 1cbe 6118 74bd b4f1 fa3d 3b9a ce3d
00000180: 6384 423e 76c5 483e e167 3b3e be15 8f3d
00000190: 0bbd 93bd aac9 3c3e 7bc5 7bbe 4269 533e
000001a0: 45a5 463e 5691 33be d686 4a3e b812 17be
000001b0: 4e94 22be 5bfc 2a3e 3ec8 673e cafa 21be
000001c0: 1e40 78be 68c5 383e 2e29 f33d 259f ef3d
000001d0: 050a 31be e082 1e3e 227d b5bd 8139 0bbe
000001e0: 1d70 443e 2b64 1d3e e12a 3b3e f592 2abc
000001f0: a735 ffbd 76ba a83d 8aa6 1cbe 87ac 013e
00000200: f75e d7bd c7b7 413e 8fe5 da3d 373d 97bd
00000210: def7 253e a0b9 19be f66c d83d 9b5f 503e
00000220: 6bc7 e7bd 51c0 2d3e 5555 053e 575a b1bd
00000230: fe24 293e 0f83 d8bd 3ba1 143e 2943 d33d
00000240: b5f2 4c3e 71f9 89bd 98e3 113e 4281 82bb
00000250: a28b e23d 7850 093e 4e1d bfbd 8cfe 463e
00000260: ea66 873d 85af abbd 3735 fb3d d19b 9e3d
00000270: ca9b dabb e665 7b3e bdda 5c3d 4df1 003e
00000280: 70fb e13c 873a 123e b235 523e 9916 f7bb
00000290: 3e5c 8dbd 66a8 383e 6031 b8bb cfdf 8f3d
000002a0: b3dd 98bd 23ef 293e 3319 423e 1f1c fdbc
000002b0: 71ba 9cbc 56d4 0cbe 3c77 3e3e 684d 4b3e
000002c0: 9523 ca3b a195 35bd a161 363e 50a6 90bd
000002d0: 931f 08be 38e0 223e ac60 a53d d059 e8bd
000002e0: e9f6 0d3e 1d46 26bd bff4 b7bd 51da bcbd
000002f0: 66ac 4c3e 60b5 493d 799d 7bbb da8e b83d
00000300: eae5 bc3c 9274 82bd 0f76 18be a34f 163d
00000310: 56a7 59bc f1e7 723e 4744 853d efa0 0b3d
00000320: 9904 213d e38b 883e a1c4 833d 054e 25be
00000330: e458 193d 063b 0b3e c8e1 0e3e 5179 4c3e
00000340: 4c8e bbbd ff95 5cbd 6671 3d3e 72ae e5bd
00000350: 1ccc 0cbe 8850 04be 5bcc 273e 0c51 fc3d
00000360: 2806 163e b86d 3fbd 1b6f 553e dec0 1cbd
00000370: 05ed b03c ae0d 683e af4f debd 7e00 3a3e
00000380: 94b2 bdbd 022b 863d a038 ebbd 2055 ba3c
00000390: e2c0 113d 3c15 fe3d ec45 34be 51a2 893d
000003a0: 6a77 d53c b14f eebc 57d7 733b 2e2b e83d
000003b0: 41bb 32bd 44ba d23d a3a5 40bd 0df8 293e
000003c0: cbaf 4bbe 7b8e ee3d 54b9 1f3e e834 9c3d
000003d0: de48 863d d7db bebd f188 103e bb10 12be
000003e0: 87f0 bc3d 8f96 f5bd c67b 4d3e f81f 01be
000003f0: df69 273d 0084 f7bd 4275 c83d 689b 003e

net.9.bias f4 [7]
-0.05551864 0.02287888 -0.034063768 0.014821814 -0.056221504 0.11087699 0.0106178075
00000000: 8367 63bd 7d6c bb3c 7386 0bbd 32d7 723c
00000010: 8548 66bd 7a13 e33d 50f6 2d3c
